…
nsummary(model, (3, 224, 224))","metadata":{"trusted":true,"execution":{"iopub.status.busy":"2024-12-06T02:22:54.127453Z","iopub.execute_input":"2024-12-06T02:22:54.128306Z","iopub.status.idle":"2024-12-06T02:22:54.727949Z","shell.execute_reply.started":"2024-12-06T02:22:54.128259Z","shell.execute_reply":"2024-12-06T02:22:54.726894Z"}},"outputs":[{"name":"stdout","text":"----------------------------------------------------------------\n        Layer (type)               Output Shape         Param #\n================================================================\n            Conv2d-1         [-1, 64, 224, 224]           1,728\n       BatchNorm2d-2         [-1, 64, 224, 224]             128\n            Conv2d-3         [-1, 64, 224, 224]           4,096\n       BatchNorm2d-4         [-1, 64, 224, 224]             128\n            Conv2d-5         [-1, 64, 224, 224]          36,864\n       BatchNorm2d-6         [-1, 64, 224, 224]             128\n            Conv2d-7        [-1, 256, 224, 224]          16,384\n       BatchNorm2d-8        [-1, 256, 224, 224]             512\n            Conv2d-9        [-1, 256, 224, 224]          16,384\n      BatchNorm2d-10        [-1, 256, 224, 224]             512\n       Bottleneck-11        [-1, 256, 224, 224]               0\n           Conv2d-12         [-1, 64, 224, 224]          16,384\n      BatchNorm2d-13         [-1, 64, 224, 224]             128\n           Conv2d-14         [-1, 64, 224, 224]          36,864\n      BatchNorm2d-15         [-1, 64, 224, 224]             128\n           Conv2d-16        [-1, 256, 224, 224]          16,384\n      BatchNorm2d-17        [-1, 256, 224, 224]             512\n       Bottleneck-18        [-1, 256, 224, 224]               0\n           Conv2d-19         [-1, 64, 224, 224]          16,384\n      BatchNorm2d-20         [-1, 64, 224, 224]             128\n           Conv2d-21         [-1, 64, 224, 224]          36,864\n      BatchNorm2d-22         [-1, 64, 224, 224]             128\n           Conv2d-23        [-1, 256, 224, 224]          16,384\n      BatchNorm2d-24        [-1, 256, 224, 224]             512\n       Bottleneck-25        [-1, 256, 224, 224]               0\n           Conv2d-26        [-1, 128, 224, 224]          32,768\n      BatchNorm2d-27        [-1, 128, 224, 224]             256\n           Conv2d-28        [-1, 128, 112, 112]         147,456\n      BatchNorm2d-29        [-1, 128, 112, 112]             256\n           Conv2d-30        [-1, 512, 112, 112]          65,536\n      BatchNorm2d-31        [-1, 512, 112, 112]           1,024\n           Conv2d-32        [-1, 512, 112, 112]         131,072\n      BatchNorm2d-33        [-1, 512, 112, 112]           1,024\n       Bottleneck-34        [-1, 512, 112, 112]               0\n           Conv2d-35        [-1, 128, 112, 112]          65,536\n      BatchNorm2d-36        [-1, 128, 112, 112]             256\n           Conv2d-37        [-1, 128, 112, 112]         147,456\n      BatchNorm2d-38        [-1, 128, 112, 112]             256\n           Conv2d-39        [-1, 512, 112, 112]          65,536\n      BatchNorm2d-40        [-1, 512, 112, 112]           1,024\n       Bottleneck-41        [-1, 512, 112, 112]               0\n           Conv2d-42        [-1, 128, 112, 112]          65,536\n      BatchNorm2d-43        [-1, 128, 112, 112]             256\n           Conv2d-44        [-1, 128, 112, 112]         147,456\n      BatchNorm2d-45        [-1, 128, 112, 112]             256\n           Conv2d-46        [-1, 512, 112, 112]          65,536\n      BatchNorm2d-47        [-1, 512, 112, 112]           1,024\n       Bottleneck-48        [-1, 512, 112, 112]               0\n           Conv2d-49        [-1, 128, 112, 112]          65,536\n      BatchNorm2d-50        [-1, 128, 112, 112]             256\n           Conv2d-51        [-1, 128, 112, 112]         147,456\n      BatchNorm2d-52        [-1, 128, 112, 112]             256\n           Conv2d-53        [-1, 512, 112, 112]          65,536\n      BatchNorm2d-54        [-1, 512, 112, 112]           1,024\n       Bottleneck-55        [-1, 512, 112, 112]               0\n           Conv2d-56        [-1, 256, 112, 112]         131,072\n      BatchNorm2d-57        [-1, 256, 112, 112]             512\n           Conv2d-58          [-1, 256, 56, 56]         589,824\n      BatchNorm2d-59          [-1, 256, 56, 56]             512\n           Conv2d-60         [-1, 1024, 56, 56]         262,144\n      BatchNorm2d-61         [-1, 1024, 56, 56]           2,048\n           Conv2d-62         [-1, 1024, 56, 56]         524,288\n      BatchNorm2d-63         [-1, 1024, 56, 56]           2,048\n       Bottleneck-64         [-1, 1024, 56, 56]               0\n           Conv2d-65          [-1, 256, 56, 56]         262,144\n      BatchNorm2d-66          [-1, 256, 56, 56]             512\n           Conv2d-67          [-1, 256, 56, 56]         589,824\n      BatchNorm2d-68          [-1, 256, 56, 56]             512\n           Conv2d-69         [-1, 1024, 56, 56]         262,144\n      BatchNorm2d-70         [-1, 1024, 56, 56]           2,048\n       Bottleneck-71         [-1, 1024, 56, 56]               0\n           Conv2d-72          [-1, 256, 56, 56]         262,144\n      BatchNorm2d-73          [-1, 256, 56, 56]             512\n           Conv2d-74          [-1, 256, 56, 56]         589,824\n      BatchNorm2d-75          [-1, 256, 56, 56]             512\n           Conv2d-76         [-1, 1024, 56, 56]         262,144\n      BatchNorm2d-77         [-1, 1024, 56, 56]           2,048\n       Bottleneck-78         [-1, 1024, 56, 56]               0\n           Conv2d-79          [-1, 256, 56, 56]         262,144\n      BatchNorm2d-80          [-1, 256, 56, 56]             512\n           Conv2d-81          [-1, 256, 56, 56]         589,824\n      BatchNorm2d-82          [-1, 256, 56, 56]             512\n           Conv2d-83         [-1, 1024, 56, 56]         262,144\n      BatchNorm2d-84         [-1, 1024, 56, 56]           2,048\n       Bottleneck-85         [-1, 1024, 56, 56]               0\n           Conv2d-86          [-1, 256, 56, 56]         262,144\n      BatchNorm2d-87          [-1, 256, 56, 56]             512\n           Conv2d-88          [-1, 256, 56, 56]         589,824\n      BatchNorm2d-89          [-1, 256, 56, 56]             512\n           Conv2d-90         [-1, 1024, 56, 56]         262,144\n      BatchNorm2d-91         [-1, 1024, 56, 56]           2,048\n       Bottleneck-92         [-1, 1024, 56, 56]               0\n           Conv2d-93          [-1, 256, 56, 56]         262,144\n      BatchNorm2d-94          [-1, 256, 56, 56]             512\n           Conv2d-95          [-1, 256, 56, 56]         589,824\n      BatchNorm2d-96          [-1, 256, 56, 56]             512\n           Conv2d-97         [-1, 1024, 56, 56]         262,144\n      BatchNorm2d-98         [-1, 1024, 56, 56]           2,048\n       Bottleneck-99         [-1, 1024, 56, 56]               0\n          Conv2d-100          [-1, 512, 56, 56]         524,288\n     BatchNorm2d-101          [-1, 512, 56, 56]           1,024\n          Conv2d-102          [-1, 512, 28, 28]       2,359,296\n     BatchNorm2d-103          [-1, 512, 28, 28]           1,024\n          Conv2d-104         [-1, 2048, 28, 28]       1,048,576\n     BatchNorm2d-105         [-1, 2048, 28, 28]           4,096\n          Conv2d-106         [-1, 2048, 28, 28]       2,097,152\n     BatchNorm2d-107         [-1, 2048, 28, 28]           4,096\n      Bottleneck-108         [-1, 2048, 28, 28]               0\n          Conv2d-109          [-1, 512, 28, 28]       1,048,576\n     BatchNorm2d-110          [-1, 512, 28, 28]           1,024\n          Conv2d-111          [-1, 512, 28, 28]       2,359,296\n     BatchNorm2d-112          [-1, 512, 28, 28]           1,024\n          Conv2d-113         [-1, 2048, 28, 28]       1,048,576\n     BatchNorm2d-114         [-1, 2048, 28, 28]           4,096\n      Bottleneck-115         [-1, 2048, 28, 28]               0\n          Conv2d-116          [-1, 512, 28, 28]       1,048,576\n     BatchNorm2d-117          [-1, 512, 28, 28]           1,024\n          Conv2d-118          [-1, 512, 28, 28]       2,359,296\n     BatchNorm2d-119          [-1, 512, 28, 28]           1,024\n          Conv2d-120         [-1, 2048, 28, 28]       1,048,576\n     BatchNorm2d-121         [-1, 2048, 28, 28]           4,096\n      Bottleneck-122         [-1, 2048, 28, 28]               0\nAdaptiveAvgPool2d-123           [-1, 2048, 1, 1]               0\n          ResNet-124                 [-1, 2048]               0\n          Linear-125                 [-1, 2048]       4,196,352\n            ReLU-126                 [-1, 2048]               0\n          Linear-127                  [-1, 128]         262,272\n     ResNetModel-128                  [-1, 128]               0\n================================================================\nTotal params: 27,958,976\nTrainable params: 27,958,976\nNon-trainable params: 0\n----------------------------------------------------------------\nInput size (MB): 0.57\nForward/backward pass size (MB): 3240.19\nParams size (MB): 106.66\nEstimated Total Size (MB): 3347.42\n----------------------------------------------------------
…
